3d-pointnet/simplified_alexnet_model.pth (torch, 79666 bytes, 6 tensors)

features.0.weight f4 [32, 1, 3, 3]
00000000: 8714 263e 4565 e6bd ee49 ef3d 6da5 a23d
00000010: 2cf3 783e 52d3 2c3e 25e9 623e b062 673e
00000020: 2d2d 2e3d 3161 9c3e 7154 373e e75c 543e
00000030: 3d6c 15bd 9fb8 88be db50 73be b65b 3fbe
00000040: 05a1 b63c b754 28be 617a e53c f49b d6bd
00000050: b1a3 74be 65d1 ba3c ddb7 25bc 9ebc ad3c
00000060: da88 75be 7d28 193e 510b 2f3e 70d7 94bd
00000070: 9596 9b3e 51e1 6cbe efcd 20bd 3bde 4fbd
00000080: 0dbf 2ebe c8d2 693e 20f9 75be 30aa 593e
00000090: fd39 9e3e 5750 95bd 2516 23b9 74b1 4f3d
000000a0: 8fa5 53be 6b38 843e b7b7 2bbe 0b82 9dbe
000000b0: 53a9 a33e 453a 8c3d 5516 d4bc 9b59 503e
000000c0: 4fd8 d7bd 9471 3bbe c448 143d 8681 a93d
000000d0: c1f3 563e fc4b fbbd ba3a 843a 3e70 9bbe
000000e0: dac5 4d3e e9a2 9d3e 0b73 21be 48a8 18be
000000f0: 4a96 7a3e 8475 d23d 7930 eabd eef9 a9be
00000100: 1d34 b03e 4361 7ebd 1808 7abd a7b3 38be
00000110: 1aea 9ebc 449b 88be 9eea 86be 382d 55be
00000120: d729 fb3b 1bbf f2ba c155 f23d 5a3e a83e
00000130: 1801 a93e 747b 92be 3a70 e9bc 3f34 60be
00000140: 4d93 8c3e 2eb6 61be ea9c 50be 1d0b 9b3e
00000150: c086 00be fc4f 57be 1dab 3abd 90be 16be
00000160: 5408 103e 07fb 103e 4f26 d23d 2d61 98bc
00000170: 2491 2f3d 68df 443e 3570 1e3e 7f1f 863e
00000180: da78 0ebe 53cf 313e 9fdb 7b3c 8f9c 783d
00000190: 91dd a9be 9dcc 283e 461a 52be 5215 a5bb
000001a0: 9c95 5d3c ff11 92be 3b48 f33d 33d2 133d
000001b0: f997 29be c6d7 753e 62dc 4a3e 3bc4 82be
000001c0: f70b 46bc 3738 82be da67 2e3d c62c 773e
000001d0: 458c e53d aa4c 2b3e a4dc 88bd 5ffc c23d
000001e0: 058e 813e 093a babd ac38 9a3c 8831 65be
000001f0: 93e3 87bd 81ea 79bd 50dd 8e3e 9754 473d
00000200: fe96 693e bb84 a1be bae3 6bbe fb58 9abd
00000210: 6493 473e 6e83 8e3d 1014 013e 5f55 aa3e
00000220: 550c 49be 8b39 5dbe fa0d 7d3e 5d49 b2bd
00000230: 76e6 4ebe be71 24be 5a5b 8b3e 9638 883e
00000240: 4177 1c3e dca3 253e 75f0 edbc ed37 563e
00000250: d245 79bd a909 4abe 42b5 1e3e fcd7 22be
00000260: 982d 7dbe bee0 923c bf33 10be f16f 06be
00000270: ed14 7a3e aa2a 943e 2075 683e 4a06 9bbe
00000280: f6ed 9ebe 3876 4dbe c31b 0cbe 4ae2 7a3c
00000290: 70fb d03d aaff 123e cd5a 8f3e b378 be3c
000002a0: 2990 5abe cdbc 0d3d c103 35be e037 9dbe
000002b0: 2eee 75be 447d 9a3d bd09 853e 93ff 70be
000002c0: f017 f1bd 7861 84be c039 cfbc 535d 8dbe
000002d0: d64b ddbd 7603 89be 38f5 4bbd e616 8bbe
000002e0: f674 1abe b661 6f3e d683 ecbd c02a 0a3d
000002f0: 3431 97be 889c 723e 52db 113d 8d2a a23e
00000300: fb6f 32be 7ece 893e ec9d 77be 8ffc 8f3e
00000310: f854 5cbe 4e7d 39be 84db 4a3e 30ae 3f3d
00000320: fe80 67be faf2 193e efdc b53c d0c0 223e
00000330: 1cce 953e 4861 03be b5ac 9b3c da4c 673e
00000340: 969d 1cbe 70a8 57bd c5b9 ab3e 0728 913e
00000350: 54db 4ebe f789 efbd 3665 513e a02f 7e3e
00000360: 82eb 69be fcd1 3ebd 5c9b 6abe 32d6 943e
00000370: 61d0 503e f204 a43d b41a d83d 985b 56be
00000380: 64be e3bc 8253 4d3e 0406 623e c072 473e
00000390: 004c 5cbe a46c 41be 8bd1 443e 4833 03be
000003a0: 3cca 2b3e 722c bbbc ee82 153e 9b00 6fbe
000003b0: 78bc 05bd 4019 94be 20ad 77bc 5c1d 98be
000003c0: 2325 2cbe c8aa 18bd 90f8 a5bd b556 2d3e
000003d0: b4d0 d13d 7eab 62be 4d75 a7bd 0a5b 12be
000003e0: 8764 9bbe 7d4d 513e 0abe 8ebd 266c 28be
000003f0: c640 4bbe 54d9 b83d be2d 01be 40ce 82be
0.16218768 -0.112497844 0.11684023 0.07941709 0.24311513 0.16877487 0.2215925 0.2259624
0.04252355 0.305429 0.17903306 0.20738564 -0.036480177 -0.26703355 -0.23761313 -0.18687329
0.022293577 -0.16438566 0.028012456 -0.104789644 -0.23890568 0.022804925 -0.010114637 0.021208104
-0.23977986 0.14956851 0.1709416 -0.07267654 0.30388322 -0.23132826 -0.039258894 -0.050749045
-0.17065068 0.22834313 -0.24020815 0.21256328 0.30903617 -0.07290714 -0.00015553141 0.050706342
-0.20668624 0.25824293 -0.167693 -0.30763277 0.31965122 0.068470515 -0.025889555 0.20346682
-0.105393045 -0.18305045 0.036202207 0.08276658 0.20991422 -0.12270352 0.0010088303 -0.30359071
0.20095006 0.30788353 -0.15766542 -0.14907944 0.24471393 0.102763206 -0.11435027 -0.33198494
0.3441476 -0.062104475 -0.061042875 -0.18037282 -0.019398738 -0.26680958 -0.26350874 -0.20818031
0.0076649 -0.0018520089 0.118327625 0.3286007 0.33008647 -0.28609812 -0.028495897 -0.2189493
0.27456132 -0.22042152 -0.20372358 0.30281916 -0.12551403 -0.21026605 -0.045573343 -0.14721131
0.14065677 0.1415826 0.10261213 -0.018601025 0.042863026 0.19225848 0.15472491 0.26195905
-0.13913289 0.17364244 0.015372186 0.06069618 -0.33176854 0.16484304 -0.20517835 -0.005037942
0.013524439 -0.28529355 0.11879011 0.036089133 -0.16561879 0.24008092 0.19810632 -0.25540337
-0.012087814 -0.25433514 0.04257951 0.24138173 0.11208395 0.16728464 -0.06682709 0.09520792
0.25303665 -0.090931006 0.018825851 -0.22382176 -0.06635203 -0.061014656 0.27903223 0.048664656
0.22811505 -0.31546578 -0.2303609 -0.07536503 0.19489819 0.06958662 0.1260531 0.33268258
-0.1963361 -0.21603982 0.24712363 -0.08705399 -0.20205101 -0.16059014 0.27218133 0.26605672
0.15279867 0.16175789 -0.029045323 0.20919771 -0.0608576 -0.19730248 0.15498832 -0.15902704
-0.24724424 0.017929431 -0.1408224 -0.1312864 0.24422045 0.289388 0.2270093 -0.30278236
-0.31040925 -0.20064628 -0.13682465 0.015312741 0.10204208 0.1435534 0.27998963 0.023250913
-0.21344055 0.034603883 -0.17677213 -0.30706692 -0.2401664 0.07543424 0.25983992 -0.23534994
-0.11772144 -0.25855613 -0.025296092 -0.27610263 -0.1080548 -0.26760453 -0.049794406 -0.27165908
-0.1508368 0.23377118 -0.11548583 0.033732176 -0.29529727 0.23692524 0.03560955 0.3167309
-0.1742553 0.26915354 -0.24181336 0.28122374 -0.21516788 -0.18114206 0.19810301 0.046796978
-0.226078 0.15034094 0.022200076 0.15893865 0.2925881 -0.12830079 0.019003252 0.2258791
-0.1529449 -0.05265087 0.33540168 0.2835085 -0.20200855 -0.116962366 0.20448765 0.24822855
-0.22843745 -0.046586975 -0.22910827 0.29069668 0.2039199 0.08008756 0.10551968 -0.20933378
-0.027800746 0.20051387 0.22072607 0.19477367 -0.21513367 -0.188891 0.1922056 -0.12812531
0.16776365 -0.022848342 0.14600727 -0.23340075 -0.03265044 -0.28925514 -0.01511696 -0.297099
-0.16811042 -0.037272245 -0.0810405 0.16927607 0.10244885 -0.22135732 -0.0817667 -0.14292541
-0.30350134 0.20439716 -0.06969841 -0.16447505 -0.19848928 0.09025827 -0.12615106 -0.2554798

features.0.bias f4 [32]
00000000: 3b0a 51be 83a9 e43c cc28 ef3d 0f6a 81be
00000010: ead5 acbd 1ce3 a9be 60b5 74be 28bc 703d
00000020: 21db 55bb bf6b 94be 8e18 aabe 0838 24be
00000030: 2a9a 023e 6e91 5ebd 0772 87be 2d46 a23d
00000040: 4d4e 09be 4c9f 5e3e 42e6 fa3d 2477 95be
00000050: 80c9 7ebd 67d5 683e 10db fabd be8c 81be
00000060: 11c0 03be 1c86 bebd 56dd 5bbe a584 12be
00000070: 36b3 3e3e c897 383d 8710 8a3d eb81 f23c
-0.20414059 0.02791286 0.11677703 -0.2527623 -0.08439238 -0.33181083 -0.23897314 0.05877319
-0.0032631832 -0.28988454 -0.3322186 -0.16036999 0.12754121 -0.05433791 -0.26454183 0.07923541
-0.13408776 0.21740454 0.122509494 -0.2919246 -0.062203884 0.22737657 -0.12248814 -0.2530269
-0.12866236 -0.09302923 -0.21471152 -0.14308412 0.18623051 0.045066625 0.067414336 0.029602965

features.3.weight f4 [64, 32, 3, 3]
00000000: 0b53 5dbd 82f2 5d3d 958b 0bbd d568 25bd
00000010: a6c4 153d f0db 293c c060 29bc 4a13 323d
00000020: 3281 f3bc c3f2 a7bc bf25 843c 6db9 6bbc
00000030: ffc0 39bd d7e6 cfbd dec1 29bd d352 723d
00000040: 967a e5bc d2c8 2a3d bfb9 d63d 2d20 c6bc
00000050: f398 653c 994b 49bd 5bac 3c3d 70a3 6aba
00000060: d921 5d3c 774b b23d cbdb 68bc 252b 94bd
00000070: 6d98 2abd f76a 9ebb ef65 ee3c f356 063c
00000080: 74b9 b8bc 9445 b13c 604e 093a 5d6f 033c
00000090: 9027 713d 085f 4cbc aaac 2cbd 6772 813c
000000a0: 77fc 613d e61b 883a 9230 0abd 31c8 64bc
000000b0: 0d1b cc3c 0ad8 34bd f99b dcbc cc89 963c
000000c0: 52d4 713c 9aa0 243d 5c32 5dbd e645 063d
000000d0: c9fa 17bd 5285 4b3d 09f8 ddbc de9b a23a
000000e0: cc79 84bc cd32 1c3d 09dc 8c3c 298c 4abd
000000f0: 0c24 473b a8e7 403d 27f4 a43c d0af 693b
00000100: faa7 6abd 98f3 893b 5f78 013d f09f 31bb
00000110: 16d7 81bc 3b72 693d f4d9 fd3c 015e 143d
00000120: d250 44bd d512 adbb 141f 5a3c 812b 6ebb
00000130: ff0e cbbc 42da ddbc 34c9 d33c e521 8c3c
00000140: 7444 3a3d acc4 d83c 9449 4bbd deab 41bd
00000150: 3ef2 013d 6ba0 12bd 069a c0bc e88c 3f3d
00000160: 55c9 7d3d a6f7 e83c 327e 17bc 9752 43bd
00000170: f7a7 8a3c d779 663d 1afa 823c 9db7 003d
00000180: 2f2d 493d a475 20bd 1477 2e3d 80ef 2d3c
00000190: d7ee 79bd e133 1c3d 29fc 823c b1a0 113d
000001a0: c8cf 9dbc 0efa efba 63f1 923c 0c39 363c
000001b0: 8dd6 f9bc 79db f9bc a0d7 9bbc 3577 4dbd
000001c0: 1920 22bd 0d26 cdbc 3452 abbc accd 00bd
000001d0: 8543 26bd 8d7e 02bd a7d9 2fbc b3ea 653c
000001e0: 6355 0dbd b2c6 d23b 3433 02bd 4f77 da3c
000001f0: 7082 793c 85a4 ea3c 7d4e 203d cd72 cf3c
00000200: 68b1 52bd b0a7 eb3c 2ff2 54bd 718f 6abd
00000210: 1b63 073d 3068 c73c 4920 653d 4998 07bc
00000220: d758 d2bc b853 e33b 8686 6dbd 2841 1d3d
00000230: a252 52bd f640 1fbd 95bf 65bd 6bfc 293c
00000240: 301f 16bc b40e 6f3d a8c8 2abc 66e7 dabb
00000250: c5ca 343d b8da f63b 9f3c 16bd 4b04 853d
00000260: 5c56 bf3c a5e3 2f3d 1d2c 6abd 0f98 96bc
00000270: cdbe b6bd a1ea 5bbd c4b9 bc3c 3c4e 31bd
00000280: ae91 963c cf15 86bc 150e d3bc 7659 c9bb
00000290: da57 68bd 6351 dfbb c3aa 62bd af7d 563d
000002a0: 7677 023d b785 bebc 5a33 f33c f469 3fbd
000002b0: 95bb 243d 93f5 55bd 4c6d 6c3c a52a 5f3d
000002c0: da73 923c b54d 013d ecff 10bd 00cf 8539
000002d0: f5a4 153d 1c7e 6dbc 9fa4 2d3d 3cce 36bc
000002e0: f666 6ebd c49b 67bd 047e 92bc 20b4 8aba
000002f0: 4299 55bd 6bb7 163d 736b babc 9ae0 4d3c
00000300: 5014 00bb b6fe 09bd f40a c3bc eac2 5c3c
00000310: 1dbe 4cba 78d6 16bc 8938 d8bc 0e77 acbc
00000320: d75e 2a3c 867f 4f3d a55c 0d3d 5443 223d
00000330: 4afe 163d d8b2 f4bb 0034 323d 18ad 503c
00000340: 96ff 02bd 0eec acba 8da4 0dbd ffe5 063d
00000350: 897a 983c 71d2 27bd 2b53 533d 98c8 03bc
00000360: cd35 a63c 887b 123d 26d2 b1bc 08e4 8439
00000370: 7176 9d3a 17e3 8f3c e3aa bfbc df65 7dbd
00000380: 429d ceba e3c8 b63c d846 38bd 542c 0ebd
00000390: fead b73b a0fd 043d 797f 44bc 8479 40bd
000003a0: fe79 8c3c 7283 6f3c 2aa8 dd3c 30bc e7bb
000003b0: eb19 4c3d 0791 3d3d ede5 133d cfc5 5cbd
000003c0: 495f 5b3d 8b2b 183d c754 323d 5033 66bb
000003d0: ad47 33bd 619a 89ba b4ec f3bc 6d11 c1bc
000003e0: 639a 37bd 92f5 823c 9a63 8ebc 1615 403d
000003f0: 8e6f 47bd 0eb1 07bd 1a2f c83c 53cb 353d
-0.054034274 0.05418635 -0.034068663 -0.04038318 0.03656449 0.010367379 -0.010338008 0.043475427
-0.029724691 -0.0205015 0.01613128 -0.014387471 -0.04535007 -0.10151451 -0.04144465 0.05916102
-0.028012555 0.041695423 0.10484647 -0.024185264 0.014013517 -0.04914436 0.04606281 -0.00089507457
0.013496839 0.087058 -0.014212559 -0.07234792 -0.04164927 -0.0048345285 0.02910134 0.008199441
-0.022549368 0.021639623 0.0005237814 0.008022157 0.05887562 -0.012473829 -0.042156853 0.015801622
0.05517241 0.0010384291 -0.033737727 -0.013963745 0.024915243 -0.044151343 -0.026929842 0.018376254
0.014760094 0.040192224 -0.054003105 0.032781504 -0.0371044 0.04968769 -0.027095811 0.0012406071
-0.016171359 0.038134385 0.017194765 -0.049450073 0.0030386476 0.047095925 0.020135952 0.003565777
-0.0572891 0.004209947 0.031608935 -0.0027103387 -0.015849631 0.056993704 0.030987717 0.03622246
-0.04792864 -0.005281786 0.013313074 -0.0036341848 -0.024787424 -0.027081612 0.025852777 0.017106006
0.04547544 0.026460968 -0.049630716 -0.047283046 0.03172516 -0.035797518 -0.023510944 0.046765238
0.061959583 0.0284384 -0.009246396 -0.047686186 0.016925795 0.05626854 0.015988398 0.031425107
0.049115356 -0.03917469 0.04259403 0.010616183 -0.06101879 0.038135413 0.01598938 0.035553638
-0.019264117 -0.0018308775 0.017937368 0.0111219995 -0.030497814 -0.03050016 -0.019023716 -0.050162513
-0.039581392 -0.025042558 -0.020913221 -0.031446144 -0.040591735 -0.03185897 -0.010733045 0.014033007
-0.03450526 0.0064323777 -0.031787112 0.026668219 0.015228853 0.028642902 0.039137352 0.025323296
-0.05143872 0.028766483 -0.051988777 -0.057265703 0.0330535 0.024341673 0.055938993 -0.008276054
-0.025677128 0.0069374703 -0.05798962 0.038392216 -0.051348336 -0.03888031 -0.05609091 0.010375123
-0.009162709 0.05836363 -0.010423817 -0.006680417 0.04413869 0.0075333975 -0.036678907 0.064949594
0.023356609 0.042941708 -0.057170976 -0.018383054 -0.08923111 -0.053690556 0.023037799 -0.0432875
0.018380012 -0.016367821 -0.02576355 -0.006144698 -0.056724407 -0.006815122 -0.055338632 0.052365955
0.031852208 -0.02325712 0.029687572 -0.046731904 0.040217955 -0.05223615 0.014430355 0.05448403
0.017877508 0.031568248 -0.035400316 0.00025521964 0.03653427 -0.014495399 0.042393323 -0.011157569
-0.05820366 -0.056545034 -0.017882355 -0.0010582246 -0.05214811 0.036796015 -0.022756314 0.012565756
-0.0019543357 -0.033690177 -0.023808934 0.0134742055 -0.00078103115 -0.009206407 -0.026394146 -0.021052863
0.010398588 0.050658725 0.03451218 0.03961499 0.036863603 -0.007467609 0.043506622 0.012736581
-0.031982027 -0.0013192908 -0.034580756 0.032934185 0.018613117 -0.040972177 0.051592987 -0.008043431
0.020289326 0.03576234 -0.021706652 0.00025346898 0.0012013448 0.01756434 -0.023396915 -0.06186473
-0.0015763419 0.022312587 -0.044989437 -0.034710243 0.0056054583 0.03246844 -0.0119932825 -0.046990886
0.017148014 0.014618741 0.027057726 -0.0070719942 0.049829405 0.046280887 0.036107946 -0.053899582
0.053557668 0.0371509 0.04353788 -0.00351258 -0.043769527 -0.0010498279 -0.029775955 -0.02356788
-0.04482497 0.015986238 -0.017381478 0.04689511 -0.04869037 -0.033127837 0.024436522 0.04438336

features.3.bias f4 [64]
00000000: 3f80 98bb bd88 50bc aeb0 49bd 859a 5dbd
00000010: 01df 4dbd b6cf 3e3d 0ad6 6abd cabf 953c
00000020: b83e 63bd 7433 31bd c48d c83c 14db 33bd
00000030: 35ae fb3c f7c0 3bbc e099 10bb e293 00bc
00000040: b027 1dbd 5354 51ba 60f3 aebc 3b1c 20bc
00000050: 0370 303d 0f4d 303d a7a0 bfbc 3ecb e43c
00000060: 44b7 04bc 05d3 083d 4143 e0bb 0c78 933c
00000070: bdf9 183c 4bd7 43bd b58e c13c 6b4d 6bbd
00000080: 60cf 3d3b b25f 823c 137e d83c 4235 49bd
00000090: 4bf5 d13c 6629 7e3c a094 b1bc 9eed 41bd
000000a0: 136b 473d 4aa4 4e3d aa56 08bd f656 113d
000000b0: 8f90 8c3b b915 e4bc d84c f73b a3dc 443d
000000c0: 699c 3b3d 2f8a 58bd 8426 cc3b 8b66 e8bc
000000d0: 80f9 413d 0fc3 703d 56db 6c3d f55c 09bb
000000e0: d7bd 453d 0970 31bd 299d 8b3c a3b8 733d
000000f0: 1023 cb3c cf06 f7bc 9bc2 e13c dc1b 57bd
-0.00465396 -0.012727913 -0.04924076 -0.05410244 -0.0502615 0.046584807 -0.05733303 0.018279929
-0.055479735 -0.04326196 0.024481662 -0.0439101 0.030722717 -0.011459581 -0.0022064373 -0.007847758
-0.038367927 -0.00079852826 -0.021356285 -0.009772356 0.043075573 0.04304224 -0.023392035 0.027928945
-0.008100335 0.03340437 -0.006843955 0.018001579 0.009336886 -0.04781274 0.023627618 -0.05744688
0.0028962716 0.015914772 0.026427304 -0.049123056 0.02562966 0.0155128 -0.021677315 -0.04734575
0.0486861 0.050449647 -0.033285774 0.035483323 0.0042896937 -0.02784239 0.0075470023 0.048061978
0.04580346 -0.052866157 0.0062301774 -0.028369209 0.047357082 0.058779772 0.057826363 -0.0020959948
0.04827675 -0.043319736 0.017042713 0.059502255 0.024796993 -0.030154614 0.027558615 -0.052516803

classifier.0.weight f4 [5, 64, 1, 1]
00000000: 7277 9c3d 6ad1 a63d 71be 59bd d973 123d
00000010: 7f0a 2dbd 9b3e d73d 787d c2bd 2022 753d
00000020: f1a9 3c3d 3489 df3c ce8c d43d 8976 6a3d
00000030: b9a7 bcba bb53 b43d ea41 e3bd 0523 b03d
00000040: f0a0 cbbc d8c6 6a3d 3983 d0bd a27f da3c
00000050: 08d0 33bd 705b 20bc 3bb0 a4bd 2813 a73d
00000060: 48d4 56b9 0a6c bd3c 954c dbbd 019f d33d
00000070: ff97 bdbd 65b3 68bd 1a96 e13c 3056 86bd
00000080: 263f 1f3d 9aab 7a3d 1afa a63d 6794 d5bd
00000090: 93ff 2f3c c561 5f3d 6cf0 aabd 64d5 f7bc
000000a0: 4c0a c13b f30e a83d 9e75 cebd aa1b 46bd
000000b0: e5df fbbc 3260 ed3d 50cf 9fbc 27e6 cd3b
000000c0: 46dc cc3d 54bb ed3d 24bd afbc bfe5 96bd
000000d0: 5d77 f8bd e389 37bd 6f5d dfbd edbf d3bd
000000e0: 07b4 9fbd 4836 b73c 1dfb 5f3d 0fa4 a13d
000000f0: c53d d0bd 6d7b 903c c462 a33d 34c3 413d
00000100: e2d1 babd f6b5 b23d ce12 7ebd 906d 843d
00000110: d7c6 053c 685c 453d ebd6 0e3c d47b 5e3d
00000120: 784c 0a3c 8301 3bbd 089c 27bb c744 273c
00000130: 45b7 8e3c d2db a4bd 4c13 9bbd 36b7 ee3c
00000140: 9ca8 ad3d 8216 8b3d 106d 8bbd e0e9 0f3d
00000150: c015 5abb 6a96 fe3d c6bd c43d 91f0 3abb
00000160: e2bf 953d bdac b73d e4c4 bebd 0496 823d
00000170: b884 f1bd 1382 f9bd a916 4bbd a654 9cbd
00000180: d80a 33bd 355b 773c 3a3c 2abd 415d 06bd
00000190: 809c b5bd 0853 90bd 06d6 683d be3a 9ebb
000001a0: f073 81bd 1aa0 12bd e884 cdbc 97c3 a0bd
000001b0: 2d2f 80bd 566d d7bc cc75 b8bd 3cac f83d
000001c0: 60b8 c9bd 225e 93bd 69a2 f43d f32f 8f3d
000001d0: 0d01 613d dc9d ab3d 1490 ebbd cdc9 65bc
000001e0: 4dab 8b3d 9c1e 093d 0e36 37bb 2f02 50bd
000001f0: 37a4 a93d 2614 78bc 4bfc 1c3c 392e f83d
00000200: c8c6 8a3d 706a 39bd ae4e d9bd 556a ce3d
00000210: 8836 353d 280c ccbc 8d42 303d c4b5 4e3d
00000220: 722d b33d 19f5 dc3d 48b2 733d e31c 7c3d
00000230: 9bc1 993d 62cc 45bd 6473 a33d df11 b6bd
00000240: 90a9 9ebc 49f4 43bd 9246 773d 5529 7f3d
00000250: 7097 ed3c 7090 773c 08c7 cc3d 6c01 cdbc
00000260: c4ee ce3d 4ff8 bbbd 253e 87bd 1a91 823d
00000270: e85d e1bd a23b 6c3d 7637 403b 0fef 78bc
00000280: 5a8c 5a3c a6ec 803d b966 e33d 4d73 d0bd
00000290: 8dff cebd 3da6 933d 6356 853d 76bd e43d
000002a0: b373 d9bd a641 a23d b0c9 c0bc 483b 2bbb
000002b0: 0317 f13d ec40 783d 90dc f0bc e5c3 bdbc
000002c0: cef9 e8bd 2048 11bc 87df 31bc 220c 923d
000002d0: 19ab 9dbc 561e e7bb e0c4 58bd 80c1 b1bd
000002e0: 3b86 893d f46a 98bd 0072 17bb 83ab 05bd
000002f0: 9df9 a8bd 7b6d ffbb 92ad b0bd 8169 923c
00000300: 5d7b 453d 83b4 043d 11e1 fe3d 8bed 81bd
00000310: cf90 8fbc cb8d 743c 4731 b5bd 6c6c 1f3d
00000320: c6b0 6d3d dced 9a3d 92ca f23b 20b9 31bd
00000330: 0381 09bd 4482 e63d e88d 513d cf9c 4abd
00000340: 2027 d2bb 0851 ccbc bb30 1fbd c578 bc3d
00000350: 0c27 623d d4ca 00bd c624 9fbd 6780 95bd
00000360: b9f3 313d cc85 92bd e966 60bd 5cb1 7cbd
00000370: 0ebc 423d 82a1 8fbd da3a c7bd 64e7 89bd
00000380: 7225 e1bd 11a3 6abd 8720 edbc f8ba e03d
00000390: d101 5fbc d0a4 fcbd 1a54 893d 18e5 c5bc
000003a0: 1b40 1c3d a767 8dbc 325a f7bd 2495 afbd
000003b0: 9379 fa3d 030a 233c 602a a2bc 590d b7bd
000003c0: 4c4e 33bd b626 ec3d c83b aa3c a58d cdbd
000003d0: d99f 8e3d 47b1 ce3b d967 e73d 57a8 4b3d
000003e0: 8050 2ebd db8d 9dbd 4300 b93c a3a7 eabd
000003f0: 5ed1 683a e96a 693d 6d89 57bd d89e 3e3d
0.0763997 0.08145411 -0.053160135 0.035755012 -0.042246338 0.10509988 -0.094965875 0.059846997
0.046060506 0.027287103 0.10378419 0.05724195 -0.0014393247 0.08805033 -0.110965565 0.086004294
-0.024857014 0.05731854 -0.10181279 0.026672188 -0.043899566 -0.009787425 -0.08041426 0.08157951
-0.00020487711 0.023122806 -0.10707966 0.10333062 -0.092575066 -0.05681171 0.027537394 -0.06559408
0.038878582 0.06119881 0.08153172 -0.10428696 0.010742086 0.0545366 -0.08346638 -0.03025312
0.00589112 0.08205976 -0.100810274 -0.048366226 -0.03074641 0.115906134 -0.019508034 0.00628354
0.10002951 0.11607996 -0.021452494 -0.07368039 -0.12132142 -0.044809233 -0.10906493 -0.10339341
-0.07798009 0.02236475 0.05468284 0.0789262 -0.101680316 0.017636979 0.079778224 0.0473053
-0.09122063 0.087261125 -0.062029652 0.0646621 0.008165083 0.04818383 0.008718233 0.05431731
0.008441083 -0.04565574 -0.002557518 0.010209269 0.017421374 -0.0804974 -0.0757204 0.029140096
0.08479425 0.067914024 -0.068079114 0.03513515 -0.0033277124 0.12431033 0.09606509 -0.0028524736
0.07311989 0.08968494 -0.09314898 0.063762695 -0.11792892 -0.12183013 -0.049582157 -0.07633333
-0.043711513 0.015097429 -0.041561343 -0.032803778 -0.08867741 -0.07047087 0.056844734 -0.00482878
-0.063209414 -0.035797216 -0.025087789 -0.07849806 -0.06258998 -0.026297253 -0.09006843 0.12142226
-0.0984962 -0.07195689 0.1194504 0.069915675 0.054932643 0.08379719 -0.1150209 -0.014025164
0.068197824 0.033476457 -0.0027955803 -0.050783332 0.082832746 -0.0151415225 0.009581636 0.12118191
0.06776196 -0.045267522 -0.1061071 0.10078875 0.04424146 -0.02490814 0.043032218 0.050466314
0.087489024 0.10788936 0.059496194 0.061550986 0.075076304 -0.048290618 0.079809934 -0.088901274
-0.019367963 -0.04784039 0.060370035 0.062295277 0.029002875 0.01511012 0.099989 -0.025025092
0.10104135 -0.091782205 -0.0660365 0.06375332 -0.11004239 0.057674058 0.0029329932 -0.015193715
0.0133391265 0.06295137 0.11103577 -0.10178242 -0.10107336 0.07209442 0.065106176 0.11168949
-0.10617771 0.07922678 -0.023533672 -0.0026127864 0.11771967 0.06060879 -0.029402047 -0.023164699
-0.113757715 -0.008867294 -0.010856516 0.071312204 -0.019246625 -0.007053177 -0.05292213 -0.08679485
0.067150556 -0.07442275 -0.002310872 -0.03263427 -0.08250735 -0.0077950335 -0.08626856 0.017872574
0.04821335 0.032398712 0.12445272 -0.06344136 -0.017525105 0.014926384 -0.088472895 0.03892176
0.058029912 0.07564899 0.007409402 -0.04338944 -0.0335703 0.11255315 0.051160723 -0.04946595
-0.0064133555 -0.024940982 -0.038864832 0.092027225 0.05521302 -0.031443432 -0.07770686 -0.072998814
0.043445323 -0.07154426 -0.054785643 -0.06169258 0.047542624 -0.07013227 -0.09728022 -0.067335874
-0.1099347 -0.05728442 -0.028946174 0.109731615 -0.013611273 -0.12336123 0.06705494 -0.024157092
0.038147073 -0.01726134 -0.1207775 -0.08573368 0.1223022 0.009951117 -0.019795597 -0.08938093
-0.04377584 0.11530821 0.020780459 -0.10036782 0.06964082 0.006307754 0.11299104 0.04972109
-0.04255724 -0.076930724 0.022583133 -0.114577554 0.0008881296 0.056986723 -0.052621294 0.046538204

classifier.0.bias f4 [5]
00000000: fd34 f9bd 9fa7 54bd 41ec 513d f214 3abb
00000010: b0ad 6a3d
-0.1216831 -0.05191767 0.0512507 -0.0028393832 0.057294548
