2d-depth-map-alexnet-classifacation/simplified_alexnet_model_with_iou.pth (torch, 79756 bytes, 6 tensors)

features.0.weight f4 [32, 1, 3, 3]
-0.20768163 -0.041736748 -0.24149023 -0.27723303 -0.1480182 -0.14076063 -0.15831405 0.40034845
0.13720171 0.16725709 0.035332136 -0.31692937 0.14128357 -0.0712762 0.22655626 0.031295117
-0.31067112 0.11665965 -0.031809375 -0.028026927 0.07868421 -0.31544834 0.2583144 0.046196673
-0.13626932 0.11150843 -0.38342214 -0.06308281 -0.4077733 0.21120295 -0.2909045 0.04083392
0.31009692 -0.10336728 0.022064183 -0.18493697 -0.21817121 -0.1644879 0.03684167 0.084265105
0.09500672 -0.027068472 0.051779285 0.047016133 -0.16280994 -0.17171824 0.08773979 -0.017316245
-0.116980456 -0.0027392902 -0.07007187 0.092685886 -0.158308 0.07160722 -0.20622675 -0.3685211
0.12635975 -0.22811231 -0.041605346 0.1267316 -0.24638566 -0.14386252 0.29492 0.25565365
-0.33535632 -0.29983613 -0.055166326 -0.068935186 -0.13944499 0.0886766 0.22073418 0.2586069
0.16958806 -0.26968983 -0.122732006 -0.0031599305 -0.03707935 -0.028948266 -0.2358231 0.10334828
0.10603059 0.27009392 0.03980636 0.024171863 -0.34099197 -0.24834451 0.043635286 0.013495826
0.1338115 0.046348006 -0.045277666 -0.22419654 0.06944198 -0.013481035 0.03228346 -0.02260693
-0.136303 0.0695744 -0.04699261 -0.011085943 0.3177067 -0.22751589 -0.05938842 -0.2399817
-0.053242456 0.29259515 -0.28869462 -0.18458083 0.023109704 -0.3468868 -0.024731914 -0.29115358
0.27115008 -0.22298037 -0.12765074 -0.17428318 0.19292063 -0.13673286 -0.2687219 0.32336003
-0.25061753 0.10741616 -0.24346644 -0.055741217 0.24748553 0.24828866 -0.22583334 -0.031137973
-0.17400452 0.28989795 -0.18215117 0.16639653 -0.28341624 -0.16326801 -0.21432559 -0.070024945
0.011553707 -0.29018176 0.15990156 0.10395948 -0.15086232 -0.163416 -0.12965032 0.20281327
-0.07925822 0.12200321 0.3070566 0.097441025 -0.2509469 -0.1850258 -0.314595 0.26619178
0.035173852 0.018801201 -0.08908505 -0.22994135 -0.005292888 0.18077986 -0.10021254 -0.37739953
0.299085 0.05156021 0.086054616 -0.29104006 0.105108395 0.013796179 -0.14468732 0.15353122
-0.07622452 -0.06276189 0.20378381 -0.03099646 -0.08546293 0.008645475 0.20675133 -0.32681528
-0.015090672 0.19669957 0.046940316 0.0044787484 0.28791595 0.2239942 -0.25337428 -0.122122414
-0.1499465 -0.067784905 -0.07997787 -0.18710296 0.117785275 -0.18700106 0.06783996 0.36606726
-0.18509947 0.31801692 -0.26048702 0.20754156 -0.1470962 -0.11690816 -0.27581504 -0.23354174
-0.2658098 -0.29392272 0.03175661 -0.046626188 -0.08817903 0.25334322 0.22670604 -0.024162922
-0.30311224 -0.20415077 0.0655085 -0.24500053 0.23131323 -0.082191385 -0.051428348 0.123548165
0.051969975 -0.035112053 0.10138166 -0.16363518 0.12551664 -0.23938692 -0.1511879 -0.0588771
0.022100024 0.1671451 -0.2697652 -0.31796038 0.0030359244 -0.28731576 0.17576917 0.15835252
-0.30007154 0.23059316 0.25948113 0.15945625 -0.16365945 -0.31723022 -0.21162559 0.109519556
-0.26384002 -0.14474761 -0.04062006 0.1278211 -0.2247557 -0.12131488 0.18581079 -0.104072295
-0.31817347 -0.12997983 -0.12185607 -0.09400086 -0.2775518 0.22718327 -0.2572922 -0.0126028005
00000000: 7eaa 54be 27f4 2abd 3749 77be 7df1 8dbe
00000010: 1592 17be 8e23 10be 141d 22be 79fa cc3e
00000020: 9b7e 0c3e 7145 2b3e 6eb8 103d 9144 a2be
00000030: a4ac 103e 42f9 91bd 5dfe 673e 4f2f 003d
00000040: 4910 9fbe 41eb ee3d 8c4a 02bd ba98 e5bc
00000050: 3025 a13d 7282 a1be c941 843e b938 3d3d
00000060: 2f8a 0bbe 885e e43d e84f c4be 8f31 81bd
00000070: a9c7 d0be 9645 583e 6ff1 94be 7841 273d
00000080: 06c5 9e3e 39b2 d3bd f2bf b43c 1e60 3dbe
00000090: 4668 5fbe 846f 28be 4ae7 163d 2f93 ac3d
000000a0: e292 c23d b3be ddbc 8416 543d fd93 403d
000000b0: a6b7 26be e8d6 2fbe ebb0 b33d ccda 8dbc
000000c0: 7393 efbd aa85 33bb d781 8fbd 19d2 bd3d
000000d0: 7e1b 22be cea6 923d 1b2d 53be ccae bcbe
000000e0: 7364 013e 4696 69be 5e6a 2abd eec5 013e
000000f0: 864c 7cbe b250 13be c1ff 963e 09e5 823e
00000100: d3b3 abbe 1f84 99be 16f6 61bd e42d 8dbd
00000110: abca 0ebe 149c b53d 2408 623e 2068 843e
00000120: 7ea8 2d3e c914 8abe eb5a fbbd d616 4fbb
00000130: 84e0 17bd ea24 edbc 9c7b 71be 43a8 d33d
00000140: 9126 d93d c049 8a3e fe0b 233d 1204 c63c
00000150: 8096 aebe 064e 7ebe eaba 323d 991d 5d3c
00000160: e205 093e 68d7 3d3d 1375 39bd c793 65be
00000170: 9937 8e3d 8fdf 5cbc a93b 043d 2b32 b9bc
00000180: 0393 0bbe 067d 8e3d 537b 40bd d1a1 35bc
00000190: 74aa a23e edf9 68be 4641 73bd c3bd 75be
000001a0: c314 5abd 08cf 953e c8cf 93be c202 3dbe
000001b0: 9050 bd3c 269b b1be 959a cabc 1512 95be
000001c0: 2fd4 8a3e f754 64be e0b6 02be 4a77 32be
000001d0: fc8c 453e b303 0cbe eb95 89be 728f a53e
000001e0: f150 80be 01fd db3d 444f 79be e750 64bd
000001f0: d96c 7d3e 623f 7e3e db40 67be 1015 ffbc
00000200: 3e2e 32be 816d 943e d685 3abe da63 2a3e
00000210: ef1b 91be bb2f 27be 2b78 5bbe 3d69 8fbd
00000220: c24b 3d3c b492 94be 3cbd 233e b5e8 d43d
00000230: a77b 1abe 8656 27be 0ec3 04be 48ae 4f3e
00000240: 2252 a2bd d2dc f93d 8636 9d3e 298f c73d
00000250: 1d7c 80be 6777 3dbe 9912 a1be 4a4a 883e
00000260: 7512 103d fa04 9a3c 3972 b6bd bf75 6bbe
00000270: f66f adbb 5b1e 393e 3b3c cdbd 833a c1be
00000280: ab21 993e cc30 533d 673d b03d 3403 95be
00000290: 1243 d73d 5e09 623c ea28 14be 4a37 1d3e
000002a0: 9a1b 9cbd 4e89 80bd b4ac 503e 4aec fdbc
000002b0: 3007 afbd c0a5 0d3c 9fb6 533e 5554 a7be
000002c0: de3e 77bc 9d6b 493e 7d44 403d 77c2 923b
000002d0: b869 933e bc5e 653e 46ba 81be 511b fabd
000002e0: 938b 19be d0d2 8abd 70cb a3bd eb97 3fbe
000002f0: 6839 f13d 357d 3fbe adef 8a3d 2b6d bb3e
00000300: b78a 3dbe 1dd3 a23e 8e5e 85be c685 543e
00000310: 63a0 16be 8c6d efbd a137 8dbe 9125 6fbe
00000320: 3918 88be 0a7d 96be 3813 023d 1afb 3ebd
00000330: 3597 b4bd 34b6 813e a125 683e 52f1 c5bc
00000340: 8731 9bbe e60c 51be 5229 863d 6be1 7abe
00000350: 60dd 6c3e f553 a8bd 88a6 52bd d206 fd3d
00000360: 78de 543d a8d1 0fbd 30a1 cf3d fb8f 27be
00000370: 6f87 003e d821 75be 00d1 1abe 1d29 71bd
00000380: 1c0b b53c 1628 2b3e aa1e 8abe b4cb a2be
00000390: 5cf6 463b 0d1b 93be d5fc 333e 2a27 223e
000003a0: faa2 99be 9d20 6c3e b6da 843e 8048 233e
000003b0: 5896 27be 006c a2be 61b4 58be ca4b e03d
000003c0: 0a16 87be b838 14be 3861 26bd 89e3 023e
000003d0: 5c26 66be f073 f8bd 2f45 3e3e db23 d5bd
000003e0: a2e7 a2be 6f19 05be ad8f f9bd 8683 c0bd
000003f0: 451b 8ebe bba2 683e cebb 83be fa7b 4ebc

features.0.bias f4 [32]
0.31174868 0.093069375 -0.15493634 -0.1515527 -0.42432088 -0.36736938 -0.2363257 0.089029245
-0.2568707 -0.26603 -0.12272885 -0.013955953 -0.21781273 0.057693414 -0.3203338 -0.51556665
0.14881667 0.18608096 0.043887373 -0.00480106 0.09283316 -0.20622383 -0.00463198 -0.2774636
-0.02539209 0.11826775 0.10160271 0.04734771 -0.05893978 0.07341418 0.007789731 -0.07494866
00000000: 869d 9f3e 289b be3d a2a7 1ebe a230 1bbe
00000010: 9640 d9be d717 bcbe 5dff 71be f754 b63d
00000020: 8e84 83be 1635 88be 4359 fbbd 82a7 64bc
00000030: 4d0a 5fbe ee4f 6c3d cb02 a4be 2dfc 03bf
00000040: 6663 183e 028c 3e3e 3fc3 333d 3652 9dbb
00000050: 501f be3d 572c 53be ddc7 97bb b50f 8ebe
00000060: 1303 d0bc 5d36 f23d 1515 d03d acef 413d
00000070: d76a 71bd 2c5a 963d 0041 ff3b af7e 99bd

features.3.weight f4 [64, 32, 3, 3]
0.022161577 -0.019054342 0.047624234 -0.04538759 0.02497519 0.016769502 0.018836293 0.0058753677
-0.0356188 0.08735272 -0.067573875 -0.19927527 -0.03850757 -0.06960035 0.10100758 -0.1159756
0.03958703 0.019834114 -0.04561035 -0.023011336 0.21517843 -0.004589252 0.020554455 0.12650609
0.13467932 0.05148153 0.003386248 0.032928944 -0.079626136 -0.08045051 0.029725565 0.014605722
0.24640559 0.014528543 0.043952953 -0.0033537864 -0.12788011 -0.08491421 -0.16512781 0.0031026027
-0.05561088 -0.054801833 0.13487382 0.007508229 0.03084051 -0.031970706 -0.023671335 -0.04432687
-0.079309285 0.019194013 -0.058615033 -0.0046083787 0.062276952 -0.04084811 0.055137213 -0.005317655
0.027778152 0.02717403 -0.030746337 -0.05656096 -0.0028735995 0.02268831 0.003878016 0.11775872
-0.029792046 -0.13862975 -0.067406975 -0.09192225 -0.13949567 -0.14454806 -0.10184224 -0.1723364
0.023878938 0.027846511 -0.018624388 0.043193825 -0.102360606 0.045213643 0.084037945 0.10394422
-0.09763275 -0.031814553 -0.00769881 -0.06977874 -0.022171503 -0.10476575 0.036534987 0.04133157
-0.10926431 -0.015264013 -0.08336107 0.034264736 -0.010582006 0.0029375742 -0.050205983 -0.024223799
-0.015864208 -0.00087232195 0.025666885 -0.0028619133 -0.05135744 -0.0421218 0.011415612 0.013709755
-0.05570872 0.054330025 -0.031885523 -0.053925294 -0.044012114 0.05257946 0.05041157 -0.013207812
0.026120055 -0.043703157 0.01877429 -0.039938644 0.032242697 -0.060834598 -0.081578426 -0.039383817
-0.04741822 0.031843826 0.1446219 -0.07123837 -0.11858781 0.19907998 -0.0068857335 0.05861603
-0.048790216 -0.025768992 0.029762644 0.05137225 -0.041008443 0.0011220053 0.043340977 -0.037351992
-0.1165786 -0.105501376 -0.009998956 -0.08823829 -0.06523122 0.055466156 -0.05044302 -0.03667963
0.042848546 -0.17219353 -0.052794885 -0.17490615 -0.108724505 0.0319991 0.023524785 -0.07485441
0.20466818 -0.036327697 -0.018908767 -0.1152946 -0.05251126 -0.09029262 -0.021827215 0.022477325
0.08783485 -0.1739933 -0.12988542 -0.0011987614 -0.06289925 -0.0532684 -0.21175271 0.131683
0.06436946 -0.027122088 0.14568517 0.069239154 0.18336865 0.05051796 -0.10541071 -0.01528587
-0.12958367 -0.04711497 -0.05819867 -0.043772835 0.023596035 0.20439987 -0.23394167 0.10400659
0.012673063 -0.15978687 -0.07952442 -0.15357524 -0.049840566 0.013808146 0.036793865 0.10897948
-0.0862475 -0.0396718 -0.03393055 -0.078762025 -0.05730029 0.016329946 -0.12097601 -0.03327277
-0.020330025 -0.04712352 -0.06189446 -0.037539035 -0.05079104 -0.018199235 -0.029310673 -0.0060026776
-0.047411107 -0.031563863 -0.027876504 -0.042483963 -0.063361615 -0.134262 0.0045295875 -0.027927697
0.042086985 -0.027400214 0.0017258562 0.019485485 0.04780562 0.037267733 -0.011367202 0.03004213
0.023165856 -0.05971159 0.05329312 -0.09959049 -0.02394209 -0.037865438 0.0023862591 -0.037267037
0.0081340335 -0.08548618 0.008267764 0.034795735 -0.03518265 -0.0074659437 -0.011613727 0.076399624
0.04086342 0.022221621 -0.062959895 0.010285463 0.010116104 0.040131774 0.046857473 -0.03681591
0.0336981 -0.018783249 -0.053305067 -0.026119858 -0.07212663 0.03071367 -0.024719276 -0.07371244
00000000: 328c b53c da17 9cbc a111 433d 56e8 39bd
00000010: c598 cc3c 3260 893c 924e 9a3c 2886 c03b
00000020: 05e5 11bd fce5 b23d 2c64 8abd d10e 4cbe
00000030: 1dba 1dbd a18a 8ebd 10dd ce3d 9e84 edbd
00000040: 0226 223d 277b a23c ebd1 3abd 4582 bcbc
00000050: bc57 5c3e 7061 96bb d161 a83c d08a 013e
00000060: 60e9 093e 4cde 523d d0eb 5d3b 80e0 063d
00000070: 0713 a3bd 3dc3 a4bd 0783 f33c d74c 6f3c
00000080: bf51 7c3e 2009 6e3c 0308 343d 33cb 5bbb
00000090: 01f3 02be 80e7 adbd 4417 29be 0955 4b3b
000000a0: 3cc8 63bd e377 60bd 5d1c 0a3e 9707 f63b
000000b0: 3da5 fc3c b7f3 02bd 63ea c1bc 1890 35bd
000000c0: e86c a2bd c33c 9d3c 5116 70bd e201 97bb
000000d0: 1e16 7f3d 5950 27bd 8fd7 613d b93f aebb
000000e0: 028f e33c 129c de3c bedf fbbc 77ac 67bd
000000f0: 0053 3cbb d6dc b93c 5026 7e3b 7c2b f13d
00000100: 730e f4bc f5f4 0dbe ab0c 8abd bc41 bcbd
00000110: f4d7 0ebe 6804 14be aa92 d0bd f478 30be
00000120: c39d c33c 5e1e e43c 2c92 98bc 02ec 303d
00000130: 70a2 d1bd f131 393d 161c ac3d b5e0 d43d
00000140: aef3 c7bd fa4f 02bd 4d46 fcbb 28e8 8ebd
00000150: 03a1 b5bc 6d8f d6bd b6a5 153d 4b4b 293d
00000160: f7c5 dfbd e915 7abc 35b9 aabd 2e59 0c3d
00000170: 2660 2dbc 5184 403b caa4 4dbd fd70 c6bc
00000180: a8f5 81bc 89ac 64ba 5c43 d23c f08e 3bbb
00000190: 2e5c 52bd e987 2cbd 8c08 3b3c e19e 603c
000001a0: d42e 64bd 2989 5e3d 659a 02bd c5e0 5cbd
000001b0: 0c46 34bd 8f5d 573d 5d7c 4e3d 9465 58bc
000001c0: baf9 d53c 1502 33bd 8acc 993c b496 23bd
000001d0: eb10 043d b32d 79bd 9712 a7bd ed50 21bd
000001e0: 9c39 42bd ac6e 023d c317 143e 6ce5 91bd
000001f0: 2ade f2bd 9fdb 4b3e b8a1 e1bb 5d17 703d
00000200: 40d8 47bd 7e19 d3bc cad0 f33c b56b 523d
00000210: 78f8 27bd 4010 933a 4f86 313d 67fe 18bd
00000220: c3c0 eebd 1b11 d8bd a9d2 23bc 47b6 b4bd
00000230: f297 85bd 7b30 633d 579d 4ebd 613d 16bd
00000240: f581 2f3d 8053 30be 733f 58bd 991a 33be
00000250: f4aa debd 7d11 033d 0db7 c03c 454d 99bd
00000260: 8994 513e 5acc 14bd 8fe6 9abc 931f ecbd
00000270: 0c16 57bd 56eb b8bd fdce b2bc 5e22 b83c
00000280: c2e2 b33d 4d2b 32be af00 05be c21f 9dba
00000290: 52d1 80bd f72f 5abd b4d5 58be e9d7 063e
000002a0: 23d4 833d 242f debc 7e2e 153e 42cd 8d3d
000002b0: fec4 3b3e eceb 4e3d 92e1 d7bd 9671 7abc
000002c0: 95b1 04be a0fb 40bd bb61 6ebd 254b 33bd
000002d0: 794c c13c 334e 513e 688e 6fbe 6801 d53d
000002e0: aea2 4f3c 2b9f 23be b3dd a2bd d442 1dbe
000002f0: 9f25 4cbd 903b 623c 2ab5 163d a230 df3d
00000300: 87a2 b0bd e67e 22bd c3fa 0abd fc4d a1bd
00000310: b5b3 6abd 61c6 853c 45c2 f7bd 0749 08bd
00000320: 278b a6bc 9804 41bd 0c85 7dbd 88c2 19bd
00000330: 440a 50bd 9016 95bc f01c f0bc 1cb2 c4bb
00000340: 2632 42bd 1c49 01bd 445d e4bc aa03 2ebd
00000350: bcc3 81bd fa7b 09be ef6c 943b a0c8 e4bc
00000360: 6763 2c3d 6a76 e0bc 2036 e23a 06a0 9f3c
00000370: d3cf 433d 0da6 183d 803d 3abc ea1a f63c
00000380: 52c6 bd3c 2494 74bd e349 5a3d 19f6 cbbd
00000390: 3422 c4bc ca18 1bbd c962 1c3b 52a5 18bd
000003a0: 9c44 053c 6113 afbd 8475 073c f985 0e3d
000003b0: af1b 10bd e0a4 f4bb 8047 3ebc 6877 9c3d
000003c0: 6760 273d 1e0a b63c 1ef1 80bd 5c84 283c
000003d0: 04be 253c 3761 243d 9fed 3f3d 48cc 16bd
000003e0: 0507 0a3d 54df 99bc 6a56 5abd 50f9 d5bc
000003f0: 20b7 93bd 3c9b fb3c 1480 cabc 8cf6 96bd

features.3.bias f4 [64]
-0.1805657 -0.14365382 -0.13247705 -0.11289734 -0.16388482 -0.05997445 -0.19306324 -0.0809342
-0.08802555 -0.25376606 -0.047092613 -0.21211131 -0.27995983 -0.05849838 -0.1772716 -0.10658569
-0.08454443 -0.15460478 -0.010834056 -0.18936865 0.013982407 -0.13376504 -0.1629867 -0.0838193
-0.10222167 -0.035751857 -0.18196522 -0.044034287 -0.086114764 -0.021773161 -0.20015275 -0.23272659
-0.09006433 -0.037450317 -0.079094395 -0.03186502 -0.054317467 -0.023115478 -0.055459548 -0.078123525
-0.12969455 -0.11196266 -0.10303083 -0.28330734 -0.0340722 -0.1447647 -0.19908123 -0.1651385
-0.09148221 -0.15296456 -0.21401231 -0.088319205 -0.07521763 -0.15390871 -0.048438724 -0.34891662
-0.03177319 -0.059641406 -0.119167835 -0.029797934 -0.14346814 -0.15183847 -0.2108399 -0.034774445
00000000: 37e6 38be fd19 13be 10a8 07be b836 e7bd
00000010: 6cd1 27be c5a7 75bd 5fb2 45be d4c0 a5bd
00000020: bd46 b4bd a0ed 81be 2fe4 40bd b533 59be
00000030: e556 8fbe ff9b 6fbd b086 35be 9949 dabd
00000040: a125 adbd b750 1ebe 5381 31bc dbe9 41be
00000050: 7716 653c b4f9 08be fce5 26be 74a9 abbd
00000060: 9859 d1bd 8a70 12bd 1755 3abe 4c5d 34bd
00000070: f05c b0bd a15d b2bc d8f4 4cbe e14f 6ebe
00000080: a673 b8bd 8165 19bd 3efc a1bd e584 02bd
00000090: fe7b 5ebd ac5c bdbc 8d29 63bd 3aff 9fbd
000000a0: a6ce 04be ae4c e5bd d401 d3bd a90d 91be
000000b0: 4b8f 0bbd 333d 14be f3db 4bbe 111a 29be
000000c0: 065b bbbd bea2 1cbe 0b26 5bbe b3e0 b4bd
000000d0: b30b 9abd 3f9a 1dbe af67 46bd 33a5 b2be
000000e0: 9b24 02bd 8c4a 74bd 440e f4bd cc1a f4bc
000000f0: 50e9 12be 8b7b 1bbe 6ae6 57be a66f 0ebd

classifier.0.weight f4 [5, 64, 1, 1]
0.06459283 -0.111606374 0.059540644 0.037382104 0.028896622 -0.006639175 -0.00042603843 0.0310706
0.17722599 0.16399708 -0.15094525 0.07715347 -0.0300301 -0.06570431 -0.022769222 0.031290837
0.041304536 -0.01271326 -0.01757151 0.5303684 0.04496061 0.018520102 0.027279424 -0.06934894
0.040945385 -0.0670828 -0.1029929 -0.04127302 -0.07988215 -0.012063041 -0.013521115 0.098551124
-0.01416331 0.055521894 0.034991115 -0.02262902 0.022289317 0.030703694 -0.0647215 -0.23078471
0.050674807 0.039287515 0.011316844 0.05885505 -0.019873315 -0.2339249 0.051352378 0.013461063
0.014098782 -0.01777374 0.77956015 0.05487257 -0.097556315 0.009625527 -0.020355742 0.14527063
0.08646478 0.015286336 0.012775422 -0.11098294 0.009507887 0.090410955 -0.004175895 -0.011373988
0.04357268 -0.08224426 0.024390843 -0.009693142 0.083620295 -0.06718201 -0.08143142 0.03133163
-0.049101368 -0.010822997 -0.20266996 0.110279456 -0.042589143 -0.083007045 -0.115476884 0.070113905
0.122737445 0.041704506 -0.01957413 -0.49874905 0.049992345 0.050745398 -0.08189737 -0.08072059
-0.43282133 -0.08464117 0.03374377 -0.04584164 -0.07091754 -0.013100301 -0.07016299 -0.44088453
0.04182184 -0.15351371 0.008047729 -0.035440918 0.03561761 0.030192012 -0.22989357 0.28625533
0.01102177 0.046249382 -0.012767128 0.053984728 0.03453315 0.25679973 0.050697807 0.026862126
0.018698849 0.06719434 -0.90687275 0.050653595 -0.11226114 -0.077331275 -0.048095714 -0.3077125
-0.17308013 -0.28400722 -0.020048872 -0.11740146 -0.032323252 0.018839162 -0.10805624 0.0137893325
-0.41449007 -0.20752302 -0.05929826 0.0583156 -0.93869144 0.14132543 -0.005572062 -1.0665934
-0.24632584 -0.8177361 -0.15150478 -1.0585501 -0.26032674 -0.050340682 -0.025877843 -0.77591586
-0.092234276 -0.50807697 0.08521372 -0.19056104 0.032370202 -0.15993014 0.19895008 0.05352456
-0.3578721 -0.08989015 -0.1353832 0.013620794 -0.08465276 -0.08145458 -0.011659385 -0.44548625
-0.17103197 -0.3465047 -0.009026143 -0.03433292 -0.16185905 0.04756447 -0.4359788 -0.12399443
0.05936029 -0.11542125 -1.2585413 -0.8084759 -0.05203075 -0.32311752 -0.004249521 0.033369027
-0.15930331 -0.18617101 -0.36789778 -0.02681677 -0.07552415 0.0035836524 -0.060398303 -0.82359695
-0.21034056 -0.59019226 0.007216524 -0.2259267 -0.0734994 -0.22304167 -0.047673665 -0.16368498
-1.7639215 -0.05148896 -0.074932136 0.04378084 -0.6736746 0.00023193876 -0.03799599 0.056666844
-1.2954026 -0.25843725 -0.11623535 -0.13093026 -0.08311593 -0.10111426 -0.0062395567 0.06498947
-0.37603754 -0.13727508 0.057148516 -0.59645826 0.01650254 -0.031164542 -0.05755383 0.0045577446
-0.5631786 -0.23354815 -0.40742972 0.0016373955 -0.2261382 0.03530956 -0.08621257 -0.12272606
-0.21048753 -0.56130105 0.015235608 -0.29267845 0.10613809 -0.38117632 -0.08239221 -0.11155282
-0.58233845 0.029557684 -0.017038824 -0.10484111 0.023447268 -1.0576303 -1.3459239 0.0025444117
-0.2940865 -0.080441445 -1.0785997 0.044917163 -0.09152125 -0.036784187 -0.011414125 -0.4812082
-0.21887656 -0.527365 -0.1864841 -0.18508872 -0.011352289 -0.24180694 -0.026554886 -0.40981776
00000000: 3f49 843d e291 e4bd e4e0 733d fa1d 193d
00000010: 9cb8 ec3c 708d d9bb e95d dfb9 c587 fe3c
00000020: bb7a 353e daee 273e 6491 1abe a302 9e3d
00000030: af01 f6bc fb8f 86bd 8586 babc d22a 003d
00000040: f22e 293d 474b 50bc 21f2 8fbc 39c6 073f
00000050: 9e28 383d 78b7 973c 1979 df3c d106 8ebd
00000060: 59b6 273d b562 89bd f1ed d2bd e60d 29bd
00000070: 4199 a3bd 10a4 45bc ab87 5dbc 2cd5 c93d
00000080: 3a0d 68bc ed6a 633d d852 0f3d 7f60 b9bc
00000090: 1698 b63c 5086 fb3c b58c 84bd d452 6cbe
000000a0: 6390 4f3d f2eb 203d 496a 393c fe11 713d
000000b0: 5dcd a2bc 028a 6fbe df56 523d ca8b 5c3c
000000c0: 94fe 663c 3c9a 91bc 4191 473f 0fc2 603d
000000d0: 9bcb c7bd 63b4 1d3c 16c1 a6bc d3c1 143e
000000e0: 7214 b13d 8a73 7a3c 0150 513c 064b e3bd
000000f0: f8c6 1b3c 6129 b93d f2d5 88bb f759 3abc
00000100: 4479 323d ae6f a8bd 4ecf c73c fccf 1ebc
00000110: 1e41 ab3d b996 89bd 84c5 a6bd 9855 003d
00000120: 841e 49bd f152 31bc b788 4fbe 32da e13d
00000130: f471 2ebd 99ff a9bd 257f ecbd e197 8f3d
00000140: c55d fb3d 58d2 2a3d ed59 a0bc 095c ffbe
00000150: c6c4 4c3d 68da 4f3d cfb9 a7bd d650 a5bd
00000160: c29a ddbe 5a58 adbd e836 0a3d 72c4 3bbd
00000170: 373d 91bd a5a2 56bc 9db1 8fbd 9ebb e1be
00000180: 614d 2b3d b332 1dbe 9fda 033c 7f2a 11bd
00000190: c5e3 113d 3d55 f73c 3869 6bbe 0f90 923e
000001a0: a794 343c fe6f 3d3d 372d 51bc 171f 5d3d
000001b0: a272 0d3d 417b 833e 81a8 4f3d f60d dc3c
000001c0: 542e 993c 309d 893d d028 68bf 257a 4f3d
000001d0: 2be9 e5bd dc5f 9ebd 0300 45bd 7e8c 9dbe
000001e0: eb3b 31be 6569 91be 883d a4bc 2d70 f0bd
000001f0: 6365 04bd 9654 9a3c 974c ddbd a7ec 613c
00000200: 0b38 d4be ea80 54be bbe2 72bd 57dc 6e3d
00000210: 154e 70bf 9db7 103e d895 b6bb 2286 88bf
00000220: d73c 7cbe 2757 51bf 1224 1bbe 927e 87bf
00000230: 8c49 85be 0832 4ebd c5fd d3bc 6ca2 46bf
00000240: 53e5 bcbd 5511 02bf 8884 ae3d 6f22 43be
00000250: 9e96 043d bac4 23be 92b9 4b3e 923c 5b3d
00000260: 033b b7be 5418 b8bd e5a1 0abe c029 5f3c
00000270: 6d5e adbd a9d1 a6bd 0107 3fbc c616 e4be
00000280: 0123 2fbe 1069 b1be 63e2 13bc ada0 0cbd
00000290: 61be 25be f6d2 423d 9d38 dfbe cbf0 fdbd
000002a0: c723 733d fa61 ecbd e217 a1bf 47f8 4ebf
000002b0: 321e 55bd a96f a5be 913f 8bbb f6ad 083d
000002c0: 6820 23be 9da3 3ebe 195d bcbe d8ae dbbc
000002d0: 68ac 9abd b6db 6a3b 3664 77bd 40d7 52bf
000002e0: 8463 57be d716 17bf 9778 ec3b 5459 67be
000002f0: da86 96bd 0965 64be 7645 43bd 099d 27be
00000300: 2ec8 e1bf 16e6 52bd 0576 99bd 8a53 333d
00000310: f075 2cbf 9634 7339 afa1 1bbd 7e1b 683d
00000320: c1cf a5bf e351 84be cd0c eebd 9512 06be
00000330: af38 aabd fe14 cfbd 3275 ccbb 3319 853d
00000340: fe87 c0be d791 0cbe 9014 6a3d 7db1 18bf
00000350: 5630 873c c84c ffbc 91bd 6bbd 2259 953b
00000360: 792c 10bf 3f27 6fbe a19a d0be e09d d63a
00000370: c690 67be c2a0 103d 3790 b0bd cd57 fbbd
00000380: 0b8a 57be 6db1 0fbf c69e 793c f3d9 95be
00000390: ed5e d93d 8b29 c3be 3fbd a8bd ce75 e4bd
000003a0: 2214 15bf f522 f23c 0195 8bbc f0b6 d6bd
000003b0: 7c14 c03c 6e60 87bf 3c47 acbf 25c0 263b
000003c0: 8192 96be 7cbe a4bd 8e0f 8abf 0ffb 373d
000003d0: 7e6f bbbd 04ab 16bd 4f02 3bbc ec60 f6be
000003e0: 2d21 60be 6501 07bf b0f5 3ebe e687 3dbe
000003f0: f3fe 39bc 3d9c 77be a289 d9bc a2d3 d1be

classifier.0.bias f4 [5]
0.11278072 -0.04719758 0.0931374 -0.15519007 -0.44145694
00000000: 94f9 e63d 4052 41bd d2be be3d 25ea 1ebe
00000010: a506 e2be
